_________________________________________________________________
Layer (type)                 Output Shape              Param #   
=================================================================
dense_1 (Dense)              (None, 256)               590080    
_________________________________________________________________
dense_2 (Dense)              (None, 256)               65792     
_________________________________________________________________
dense_3 (Dense)              (None, 256)               65792     
_________________________________________________________________
dense_4 (Dense)              (None, 256)               65792     
_________________________________________________________________
dense_5 (Dense)              (None, 256)               65792     
_________________________________________________________________
dense_6 (Dense)              (None, 7)                 1799      
=================================================================
Total params: 855,047
Trainable params: 855,047
Non-trainable params: 0
_________________________________________________________________
Train on 22000 samples, validate on 6709 samples
Epoch 1/20
  100/22000 [..............................] - ETA: 405s - loss: 1.9509 - acc: 0.0900
…
